…
tErk-","colab":{"base_uri":"https://localhost:8080/"},"executionInfo":{"status":"ok","timestamp":1657170973107,"user_tz":-330,"elapsed":737,"user":{"displayName":"P Kumar","userId":"08759630486056956439"}},"outputId":"8c7014e3-89b4-4c8f-c66e-1a069874228e"},"execution_count":null,"outputs":[{"output_type":"stream","name":"stdout","text":["Model: \"mnist\"\n","_________________________________________________________________\n"," Layer (type)                Output Shape              Param #   \n","=================================================================\n"," conv2d_16 (Conv2D)          (None, 26, 26, 32)        320       \n","                                                                 \n"," max_pooling2d_13 (MaxPoolin  (None, 13, 13, 32)       0         \n"," g2D)                                                            \n","                                                                 \n"," conv2d_17 (Conv2D)          (None, 11, 11, 64)        18496     \n","                                                                 \n"," max_pooling2d_14 (MaxPoolin  (None, 5, 5, 64)         0         \n"," g2D)                                                            \n","                                                                 \n"," flatten_4 (Flatten)         (None, 1600)              0         \n","                                                                 \n"," dense_4 (Dense)             (None, 10)                16010     \n","                                                                 \n","=================================================================\n","Total params: 34,826\n","Trainable params: 34,826\n","Non-trainable params: 0\n","_________________________________________________________________\n"]}]},{"cell_type":"markdown","source":["####**Visualize Model**"],"metadata":{"id":"VMbpYy0R8Xv-"}},
…
e_uri":"https://localhost:8080/"},"id":"yW6syadi--LG","executionInfo":{"status":"ok","timestamp":1657169250481,"user_tz":-330,"elapsed":404,"user":{"displayName":"P Kumar","userId":"08759630486056956439"}},"outputId":"f6f82e36-4a18-490d-ca18-085c08d2c1a0"},"execution_count":null,"outputs":[{"output_type":"stream","name":"stdout","text":["Model: \"mnist\"\n","_________________________________________________________________\n"," Layer (type)                Output Shape              Param #   \n","=================================================================\n"," conv2d_6 (Conv2D)           (None, 26, 26, 32)        320       \n","                                                                 \n"," max_pooling2d_4 (MaxPooling  (None, 13, 13, 32)       0         \n"," 2D)                                                             \n","                                                                 \n"," conv2d_7 (Conv2D)           (None, 11, 11, 64)        18496     \n","                                                                 \n"," max_pooling2d_5 (MaxPooling  (None, 5, 5, 64)         0         \n"," 2D)                                                             \n","                                                                 \n"," flatten_1 (Flatten)         (None, 1600)              0         \n","                                                                 \n"," dropout_1 (Dropout)         (None, 1600)              0         \n","                                                                 \n"," dense_1 (Dense)             (None, 10)                16010     \n","                                                                 \n","=================================================================\n","Total params: 34,826\n","Trainable params: 34,826\n","Non-trainable params: 0\n","_________________________________________________________________\n"]}]},{"cell_type":"markdown","source":["###**Accuracy**"],"metadata":{"id":"51jKopuJ_G8X"}},{"cell_t
…
":"https://localhost:8080/"},"id":"y-Ph2ur1LHjC","executionInfo":{"status":"ok","timestamp":1657172531288,"user_tz":-330,"elapsed":463,"user":{"displayName":"P Kumar","userId":"08759630486056956439"}},"outputId":"ee979e4d-2672-4aa2-d03a-57b71925d05a"},"execution_count":null,"outputs":[{"output_type":"stream","name":"stdout","text":["Model: \"sequential\"\n","_________________________________________________________________\n"," Layer (type)                Output Shape              Param #   \n","=================================================================\n"," conv2d_18 (Conv2D)          (None, 75, 75, 32)        896       \n","                                                                 \n"," batch_normalization (BatchN  (None, 75, 75, 32)       128       \n"," ormalization)                                                   \n","                                                                 \n"," max_pooling2d_15 (MaxPoolin  (None, 38, 38, 32)       0         \n"," g2D)                                                            \n","                                                                 \n"," dropout_3 (Dropout)         (None, 38, 38, 32)        0         \n","                                                                 \n"," conv2d_19 (Conv2D)          (None, 13, 13, 64)        18496     \n","                                                                 \n"," max_pooling2d_16 (MaxPoolin  (None, 7, 7, 64)         0         \n"," g2D)                                                            \n","                                                                 \n"," conv2d_20 (Conv2D)          (None, 3, 3, 128)         73856     \n","                                                                 \n"," max_pooling2d_17 (MaxPoolin  (None, 2, 2, 128)        0         \n"," g2D)                                                            \n","                                                                 \n"," flatten_5 (Flatten)         (None, 512)               0         \n","                                                                 \n"," dense_5 (Dense)             (None, 512)               262656    \n","                                                                 \n"," dropout_4 (Dropout)         (None, 512)               0         \n","                                                                 \n"," dense_6 (Dense)             (None, 1)                 513       \n","                                                                 \n","=================================================================\n","Total params: 356,545\n","Trainable params: 356,481\n","Non-trainable params: 64\n","_________________________________________________________________\n"]}]},{"cell_type":"markdown","source":["####**Compile**"],"metadata":{"id":"mem6Cix0LkyE"}},{"c
…
