…
","colab":{"base_uri":"https://localhost:8080/"},"executionInfo":{"status":"ok","timestamp":1657695160935,"user_tz":-330,"elapsed":591,"user":{"displayName":"P Kumar","userId":"08759630486056956439"}},"outputId":"9f36e314-f62c-43c1-80ec-9f2e4644105d"},"execution_count":null,"outputs":[{"output_type":"stream","name":"stdout","text":["Model: \"caltech101\"\n","_________________________________________________________________\n"," Layer (type)                Output Shape              Param #   \n","=================================================================\n"," conv2d (Conv2D)             (None, 128, 128, 32)      416       \n","                                                                 \n"," batch_normalization (BatchN  (None, 128, 128, 32)     128       \n"," ormalization)                                                   \n","                                                                 \n"," max_pooling2d (MaxPooling2D  (None, 64, 64, 32)       0         \n"," )                                                               \n","                                                                 \n"," dropout (Dropout)           (None, 64, 64, 32)        0         \n","                                                                 \n"," conv2d_1 (Conv2D)           (None, 32, 32, 64)        8256      \n","                                                                 \n"," max_pooling2d_1 (MaxPooling  (None, 16, 16, 64)       0         \n"," 2D)                                                             \n","                                                                 \n"," conv2d_2 (Conv2D)           (None, 8, 8, 128)         32896     \n","                                                                 \n"," max_pooling2d_2 (MaxPooling  (None, 4, 4, 128)        0         \n"," 2D)                                                             \n","                                                                 \n"," flatten (Flatten)           (None, 2048)              0         \n","                                                                 \n"," dense (Dense)               (None, 1024)              2098176   \n","                                                                 \n"," dropout_1 (Dropout)         (None, 1024)              0         \n","                                                                 \n"," dense_1 (Dense)             (None, 512)               524800    \n","                                                                 \n"," dense_2 (Dense)             (None, 101)               51813     \n","                                                                 \n","=================================================================\n","Total params: 2,716,485\n","Trainable params: 2,716,421\n","Non-trainable params: 64\n","_________________________________________________________________\n"]}]},{"cell_type":"markdown","source":["##**Visualize Model**"],"metadata":{"id":"fUNIODe35ul
…
